model.pth (torch, 103199 bytes, 4 tensors)

linear1.weight f4 [32, 784]
000000 80 7e 94 bb 37 eb 84 bc 2c b8 d2 3c 02 59 95 3c
       -0.0045316815 -0.01622544 0.025722586 0.018230919
000010 60 e6 93 3c 34 91 15 3c 20 b5 3a bb fe 3e 93 3c
       0.018054187 0.009128857 -0.0028489307 0.017974373
000020 e6 f2 f8 3c 4c 64 f8 bc a8 d9 0d bd 58 8e 2b 3c
       0.03038926 -0.030321263 -0.0346314 0.010470949
000030 bf b4 c6 3c 35 4c 45 3c c8 40 f0 39 53 a2 49 bb
       0.024256108 0.012042095 0.00045824633 -0.0030766919
000040 53 d9 03 3d 65 e0 ec bc 03 34 83 bc f0 b4 ba 3c
       0.03218968 -0.028915593 -0.016016012 0.022791356
000050 f3 c1 0a bd da 56 d6 3c c3 ba 89 bc 48 29 3e 3c
       -0.03387637 0.02616446 -0.016812688 0.011606522
000060 e0 3e 5d bc 4e 90 fe 3c a5 ae ed bc 00 a7 23 bb
       -0.01350376 0.03107467 -0.029013941 -0.0024971366
000070 48 87 c1 bc cd f1 0b bd ea 04 f1 bc 7c a9 5b 3c
       -0.023624077 -0.034166146 -0.029421289 0.013407107
000080 a8 57 bd 3c cd 1b 85 3c fb f5 47 bc d0 85 80 bb
       0.023113087 0.016248608 -0.012204642 -0.0039222017
000090 fd d8 c4 bc 75 ae 58 bb b2 75 a5 3c e0 a9 2e bb
       -0.02402925 -0.003306297 0.020197723 -0.0026651546
0000a0 29 19 b3 3c f6 12 b2 3c bc 4c ae 3c be 48 20 3c
       0.021862583 0.021737557 0.021276824 0.009782968
0000b0 c8 f2 a6 bb 02 6a 9f 3c 68 fa 19 3d bc 24 b8 3c
       -0.0050948597 0.019459728 0.03759232 0.022478454
0000c0 fa 01 17 3d 9a 16 ce bb 13 d2 16 3d 99 1b 38 bc
       0.03686712 -0.0062893154 0.036821436 -0.011237049
0000d0 fc 30 9c 3c e0 d8 b4 3c 24 ef 6f 3c 5e 08 df bc
       0.019066326 0.02207607 0.014644418 -0.02722567
0000e0 a6 0e f0 3c 38 9d 65 bc bc 65 f3 3c 3b 32 7a bc
       0.02930386 -0.014014535 0.029711597 -0.015270765
0000f0 b3 c1 bd 3c 83 c6 ce bc e5 0c a6 3c b5 fb 33 3c
       0.023163652 -0.025241142 0.02026982 0.010985305
000100 79 4a 2b 3c 56 3d 8c 3c bb 97 6c bb c4 e2 8e 3d
       0.010454767 0.017119091 -0.003610118 0.06976846
000110 0d ea c9 3c 33 36 7e 3d 2a ce 31 3d bd 13 08 3d
       0.024647737 0.062063407 0.043409504 0.03322195
000120 b9 95 b0 39 bf 03 81 3d 9f d3 12 3d 1e 10 20 3d
       0.00033680888 0.06299543 0.03584635 0.03907787
000130 52 f7 10 bc fc 53 8b bc 89 27 bf bc 6f bc 0b 3d
       -0.008848028 -0.01700782 -0.023334282 0.03411525
000140 e6 10 c6 3c 97 10 c7 bc 00 ba a7 3a 58 c3 0c bd
       0.02417798 -0.024299903 0.0012796521 -0.03436598
000150 c0 b6 b2 3b a0 07 90 3c a4 d1 40 3c d7 c5 04 3d
       0.0054539144 0.01758176 0.011768732 0.032415237
000160 15 46 cb 3c e7 3b 3f 3b 12 05 7e bc 8f b8 e0 bb
       0.024813691 0.0029179992 -0.015504139 -0.0068579386
000170 fc e1 07 bc 8d 4b 5c 3d 0e 0d ee 3c 80 93 b2 3d
       -0.008293625 0.05378299 0.02905896 0.0871954
000180 23 49 b0 3d 9c b1 89 3d 8e 29 a1 3c a6 27 a5 3c
       0.086077 0.067233294 0.019673135 0.020160507
000190 d3 de dc 3c 04 8b fe 3c 2d e9 7f 3d 6a 5b bd 3d
       0.02696172 0.031072147 0.062478233 0.092459515
0001a0 34 55 ca 3d 37 98 97 3d d5 78 1d 3d 4b 36 ae 3c
       0.098795325 0.074020796 0.038445313 0.021266123
0001b0 c7 6e 5b bb eb a1 bd 3c 8e 32 a8 bc 63 d6 0c bd
       -0.0033482776 0.023148498 -0.020531919 -0.034384143
0001c0 77 73 01 3d d7 86 3b 3c 3f 84 f3 ba ed 58 e0 3c
       0.031604256 0.011445723 -0.0018578841 0.027386153
0001d0 77 68 19 3c a3 aa 76 3c 4a 2b 1c 3d b8 72 90 bc
       0.009363285 0.015055331 0.03812722 -0.017632827
0001e0 c6 97 16 3d dc 96 84 3d 58 8e 9b 3d 76 10 58 3d
       0.036765836 0.06474087 0.07595509 0.052750073
0001f0 c3 59 4f 3d a1 3d 61 3d 19 1c 7b 3b 98 ab e6 bb
       0.050622713 0.054990415 0.0038316308 -0.0070394985
000200 70 b3 7d bc 79 74 b2 3c f2 96 79 3d 83 f2 91 3d
       -0.015484676 0.021784054 0.06093497 0.071263336
000210 a1 8d 83 3c b7 28 8e 3d 9c 4a 8b 3d 50 43 71 3c
       0.016058745 0.069413595 0.0680134 0.014725521
000220 74 f8 5f 3d 3d e1 6e bb 6d a0 62 bc 90 bd ad bc
       0.054680303 -0.003645017 -0.013832194 -0.021208555
000230 9a 1c ef bc 0b 7f 00 bd c3 0f c1 bc 73 16 e3 bc
       -0.029188443 -0.031371158 -0.023567086 -0.027720666
000240 b8 45 95 3c 2f f0 15 3c 31 e8 85 3a e0 3e 04 3d
       0.018221721 0.0091515025 0.0010216293 0.032286525
000250 ce 95 66 bc b2 f0 ec 3c 61 de 5c b9 c0 0c c8 bc
       -0.014073802 0.028923366 -0.00021063678 -0.024420142
000260 cf fa d5 bc 0f 5c 9a bc be 4d 8e bd 25 5f 16 bd
       -0.026120571 -0.018842725 -0.06948422 -0.03671183
000270 da e2 8f 3d e8 fb 69 3d fb 20 96 3d 93 de 86 3b
       0.070256904 0.057125002 0.07330509 0.0041158884
000280 26 17 17 3c af f2 1b 3d 86 06 28 3b 16 9e 1a bb
       0.009221828 0.038073238 0.0025638654 -0.0023592762
000290 9b 89 aa 3c 29 de c2 3c bf 84 01 3d a2 a3 d0 bc
       0.020817569 0.023787575 0.031620737 -0.025468651
0002a0 a4 a7 08 bc 15 58 d0 bc 00 db ca bc 4c b4 f2 bc
       -0.00834075 -0.025432626 -0.02476263 -0.029626988
0002b0 5b b8 04 3d fa f6 27 3c 22 14 62 bc a2 c1 55 3d
       0.032402378 0.010251755 -0.013798745 0.052186616
0002c0 f0 9c 59 bb 1d f3 ea 3c 21 da a2 3c 80 87 fb 3c
       -0.0033205114 0.028680379 0.019879403 0.03070426
0002d0 11 fd 32 3d cb d2 f3 bc b8 9e 88 bb 68 dc 95 3d
       0.043698374 -0.0297636 -0.0041693114 0.0731743
0002e0 aa 1f 95 3d 91 91 52 3d 87 c5 38 3d 53 76 57 3c
       0.0728143 0.051408354 0.04511025 0.013150769
0002f0 30 ea 34 bc 58 00 5b bd 3f ba ea bc 70 66 90 bb
       -0.011042163 -0.053467125 -0.028653262 -0.0044067428
000300 85 ef 2d 3d 0c 65 76 3d 2d be 00 3c 42 b7 b6 bc
       0.04246475 0.06015496 0.007857841 -0.022304181
000310 62 90 e5 3c f8 da e2 3c 36 a3 e8 3c f9 4e 5f bc
       0.028022949 0.027692303 0.028398138 -0.013629668
000320 e5 fb 2a 3d 12 54 fb bb ad d5 e3 3c 4e e8 cd 3c
       0.04174413 -0.007669934 0.02781185 0.025135186
000330 90 14 28 3b 03 e0 02 3d 6c bf a0 3c 8a c3 29 3d
       0.0025647022 0.031951915 0.019622527 0.041446246
000340 43 cf 88 bc 25 87 91 bd 2f e8 50 3b 23 7a 81 bb
       -0.016700393 -0.07105855 0.0031876673 -0.0039513274
000350 97 1c b3 bb 9d 17 7e bc c4 13 a9 3b fa 3c 88 bd
       -0.0054660547 -0.0155085595 0.005159827 -0.06652255
000360 33 ec 82 bd 3b 45 90 bd 4b 79 a0 bd d5 0a d1 bd
       -0.06392708 -0.07044455 -0.07835635 -0.10207144
000370 f8 fd 47 bd d9 22 1c bc 5c 50 13 3d 82 9e 51 3c
       -0.048826188 -0.009529793 0.03596531 0.012794139
000380 16 ca 56 3b eb cc 90 3c e3 64 f3 bc 75 70 c1 bc
       0.0032774261 0.017675838 -0.029711192 -0.023613194
000390 db 9e c0 3c 15 5a d4 bc 09 81 b7 3c 86 4b a6 ba
       0.023513248 -0.02592186 0.022400396 -0.0012687303
0003a0 95 73 8c bc 09 73 10 bc c0 81 35 3d b4 3e 0d 3c
       -0.017144958 -0.008816489 0.044313192 0.008620907
0003b0 62 52 3f bd 65 b9 76 bd ce 0d 7b bd 7b 33 e3 bd
       -0.046709426 -0.0602354 -0.061292462 -0.110938035
0003c0 2c 32 e5 bd b4 af ea bd 8b ab 3d be 40 32 fc bd
       -0.1119121 -0.11459294 -0.1852247 -0.12314272
0003d0 d3 ff 05 be 27 ce ef bd df 0d e6 bd 0a 3b da bd
       -0.1308587 -0.11709242 -0.112331145 -0.10655792
0003e0 07 fe 08 bd 40 ec c7 ba 4e 03 f3 bb 85 1d 0a 38
       -0.033445384 -0.0015252903 -0.0074161654 3.2929256e-05
0003f0 f8 bf d1 3c 7e db 08 bb 71 63 80 bc 55 52 83 bc
       0.025604233 -0.002088278 -0.015672417 -0.01603047

linear1.bias f4 [32]
000000 53 73 29 3e f8 40 0c 3e e7 1d 9e 3e f4 5c ca 3d
       0.16547899 0.13696659 0.3088219 0.09881011
000010 3d f1 a6 bd 79 61 29 be 00 b2 ee 3c da 7e 8f 3d
       -0.08151481 -0.16541089 0.029137611 0.07006617
000020 be 57 a7 3d c5 6c 4e 3e 78 3c f3 bd 74 36 3b 3d
       0.08171032 0.2015868 -0.11876768 0.045706227
000030 38 ae 3b be 6f 8f c1 3d f6 67 04 3e 09 3e 8d be
       -0.18328178 0.09451186 0.12930283 -0.27586392
000040 85 70 55 3b b9 79 28 3d 7e b3 91 bd 2e 5f e6 3e
       0.0032568288 0.04113171 -0.071143135 0.4499449
000050 a0 72 6c 3e e5 eb ba 3c 5c fd 9d 3e 25 da 1b 3d
       0.23090601 0.022817561 0.3085736 0.038049836
000060 10 8d 05 bd 92 4a 1a bc 22 ee e9 3b 62 77 18 3e
       -0.03260523 -0.009417193 0.0071389833 0.14889291
000070 6a b7 68 3e 4d dc 0c 3e 8f 4b 5b be 12 26 d5 3d
       0.22726217 0.13755913 -0.21415542 0.10407652

linear2.weight f4 [10, 32]
000000 28 be 35 bf 22 c5 00 3f 8b 5b 11 3e e0 7f 49 bf
       -0.7099328 0.503008 0.14195077 -0.78710747
000010 c2 7f 82 be 3a 01 35 3f 0f 71 2f be f2 4e 5d 3e
       -0.25488096 0.70704997 -0.17132972 0.21612146
000020 a6 96 91 3e 98 31 0b bf 62 89 68 3e 86 68 cb be
       0.28435248 -0.5437255 0.22708657 -0.39728183
000030 1d 55 d4 bd 4d dd dd 3d 26 96 41 bf 4a 7a cc be
       -0.103677966 0.108332254 -0.75619733 -0.3993705
000040 3d 9a 68 3f 85 d0 b6 be 95 84 4a be fb 2f 43 3c
       0.9086035 -0.35705963 -0.19777139 0.011913295
000050 e2 9e 87 be 45 d4 8e be 0e 72 2d bf c2 73 89 3c
       -0.26488405 -0.27896324 -0.6775216 0.01677883
000060 b3 e2 dd bc 4d 7f ae 3e 08 08 09 be 15 21 49 3f
       -0.027085638 0.34081498 -0.1338197 0.78566104
000070 79 4e 8a 3e 74 64 09 3e 89 71 e3 3e 9a 70 65 be
       0.27012995 0.13417226 0.44422558 -0.22406235
000080 5d 63 c0 be d0 56 a2 3e 99 a6 ef be c6 89 3c bd
       -0.37575808 0.31706858 -0.4680679 -0.04602983
000090 be 6f 95 bd 4e 9b 07 be 1b 6a 7e be e3 7b b4 be
       -0.07296704 -0.13242838 -0.24845164 -0.35250768
0000a0 5b 11 45 bf ed 24 77 be 90 e0 3f bf d4 94 22 3f
       -0.7697961 -0.2413518 -0.7495203 0.63508344
0000b0 c0 f9 55 be c1 70 45 3f 02 3e 11 3f cd fa bb 3d
       -0.20896053 0.77125174 0.5673524 0.09178696
0000c0 05 e9 a9 be e4 36 51 3f a1 cb 39 be 39 c1 30 be
       -0.33185592 0.8172438 -0.18144085 -0.17261209
0000d0 d0 cc bf 3c 96 ae 45 3e 0a 91 5e 3f 82 b7 3e 3f
       0.023413092 0.1930488 0.8694006 0.7449876
0000e0 9a fd 39 bd 38 9c e3 3b 00 a4 3c be 41 d7 cb be
       -0.04540787 0.006946113 -0.18421936 -0.39812663
0000f0 84 b8 84 3e dd 21 6a 3d f0 8b 0d bf 9d 23 aa 3e
       0.25922024 0.0571612 -0.5529165 0.33230296
000100 d0 c5 7d 3e 4d 06 3c be 37 32 56 bf 50 9f 1a bf
       0.2478249 -0.18361779 -0.8367037 -0.6039934
000110 07 de 8a 3f ec 09 57 be 9c df 85 3e 3c 84 bf bd
       1.0849007 -0.20999879 0.26147163 -0.093513936
000120 f1 86 f5 3d bf d1 7c 3f b4 d4 03 3e 24 cd 94 bf
       0.11988629 0.9875755 0.12874109 -1.1625104
000130 20 65 27 be 33 6d cf be 31 12 2a 3e 1e cb 86 3f
       -0.1634717 -0.40513 0.16608502 1.0530736
000140 f1 b7 30 3f 8a e2 7b 3d de 13 eb 3d b1 e7 42 3d
       0.6903067 0.06149534 0.11478399 0.04758424
000150 b2 e4 b2 3e 79 1e b9 3e 5f 55 3f 3f c3 07 98 be
       0.34940106 0.3615606 0.7473964 -0.29693422
000160 b7 d8 06 be a0 89 09 3e 27 aa 51 be dc 1c f5 3d
       -0.13168608 0.13431406 -0.20475064 0.11968395
000170 85 e5 0f bf 47 ef 5a be 4f 7b 3e be 70 28 17 3e
       -0.56209594 -0.2138034 -0.18601726 0.1476152
000180 6e bb 50 3e 1a f7 1b bf 02 7c 41 bf 72 11 49 3f
       0.20383999 -0.6092392 -0.75579846 0.78542244
000190 c8 8c 82 3f 58 dd b6 be df 06 a8 be b9 a9 f6 be
       1.0199213 -0.35715747 -0.32817742 -0.48176363
0001a0 91 af 9e 3e 86 5a 4b bd 36 c0 59 bd 12 19 0d 3f
       0.30993322 -0.049646877 -0.053161822 0.5511638
0001b0 f7 a9 8f bd 46 d9 f2 3d eb fc 6a 3e 3b 28 16 3f
       -0.0701484 0.11857848 0.22948043 0.58655137
0001c0 ee 92 3f be 20 5c 1c 3f b5 31 0b 3f 67 56 c6 be
       -0.18708393 0.6107807 0.5437272 -0.38737795
0001d0 0a c7 56 bf 0a 96 25 3f b5 8f 43 bf c5 20 c7 be
       -0.8389746 0.64682066 -0.76391155 -0.3889219
0001e0 80 37 05 bd c1 fa 83 be 70 b7 0b 3e 05 87 b3 3e
       -0.032523632 -0.25777248 0.13644195 0.3506395
0001f0 e9 ed 40 be f1 4c 98 bd 7f 28 40 3f bc e4 6e 3f
       -0.18840756 -0.074365504 0.7506179 0.9331777
000200 02 88 16 bf 3d 3e e0 be a1 14 2c 3f fd 2d 2a 3f
       -0.5880128 -0.43797484 0.6721898 0.6647642
000210 ff b8 bc bd 6b a2 fb 3e 0e a6 97 be 95 5f 1b 3f
       -0.09214973 0.49147353 -0.29618877 0.6069272
000220 92 8c a5 bd 5c a8 4a 3f 77 bf d0 bd e7 bf 92 3e
       -0.08083452 0.79163146 -0.10192769 0.28662035
000230 cf bd 13 be 24 d4 c9 3e da d2 d6 be bb 15 27 bf
       -0.14427875 0.39419663 -0.41957742 -0.65267533
000240 60 f5 36 bf ec 52 ed 3e 59 93 06 bf ad 11 5d bf
       -0.7146816 0.46352327 -0.52568585 -0.86355096
000250 d9 aa 24 3f 6c ff 52 bf 76 eb c4 be 58 72 e3 3e
       0.6432319 -0.8242099 -0.38460892 0.44423175
000260 e5 d9 3d bc 38 2c 16 3e a7 fe 3a 3d e9 6c 2e bf
       -0.011587595 0.14665306 0.04565301 -0.68134934
000270 be c4 54 bf 85 36 ac be 3c a6 81 be b8 87 47 be
       -0.83112705 -0.33635345 -0.2532214 -0.19485366
000280 b6 5f 3e 3f 42 5b 8d 3e 30 ba a8 3e 49 21 d7 3e
       0.74364793 0.27608687 0.3295455 0.42017582
000290 9c a8 d5 be d3 8c 73 bf ff 94 c7 3e 2f 84 53 bf
       -0.417302 -0.95136756 0.38980862 -0.8262357
0002a0 e8 db 0e 3f 5a 2a 6c 3e 2b 94 25 be 80 5a a9 3c
       0.558043 0.23063031 -0.16169803 0.020673037
0002b0 ef aa 07 be e8 c1 ff 3e 6d 7b 30 3c 14 1d a5 3e
       -0.132488 0.49952626 0.0107716145 0.32248747
0002c0 b7 11 d1 be 3d 25 74 bf a4 95 96 3e 03 24 95 3f
       -0.40833828 -0.9536932 0.29411042 1.1651615
0002d0 a9 4b 4d bf d1 ae a7 be b1 0d 52 bd 11 09 8b bc
       -0.80193573 -0.32750562 -0.05128259 -0.016972097
0002e0 32 67 c2 bd 16 46 04 be a7 49 a6 bd b0 3c 38 3f
       -0.09492339 -0.1291736 -0.08119517 0.719676
0002f0 06 56 96 3f 29 ae b5 bb 68 6c 0c bf 4c b5 5a 3f
       1.1745002 -0.005544443 -0.54852915 0.8543289
000300 05 ea ee 3e 40 f1 ca bd 7e 39 f1 3e 4a fb 81 bf
       0.46662918 -0.09909296 0.47114176 -1.0154812
000310 ae f1 52 bf 3d 11 b6 3d 8d a4 e4 3e 83 c1 cb be
       -0.82400024 0.08890007 0.44656792 -0.39796075
000320 12 cc 51 bf d4 89 8d be 71 3b ef 3e 72 0f 54 be
       -0.8195201 -0.27644217 0.46725038 -0.20709017
000330 6f 05 aa bd 25 a0 ba 3d ca 6e 40 bf d3 3b 11 bf
       -0.083018176 0.091125764 -0.7516905 -0.5673191
000340 6c 36 a1 be 4e f1 f1 be 2a 1b 0a be 2e 77 03 bf
       -0.31486833 -0.47254413 -0.13486925 -0.5135373
000350 c6 a5 28 3f 18 66 48 bf 91 d9 e6 3e b7 d1 8e 3e
       0.6587795 -0.7828078 0.45087865 0.27894375
000360 86 d3 23 3e 1e 6d 4d 3f 3d b5 83 3e b0 8e ec 3e
       0.15998659 0.80244625 0.2572421 0.46202612
000370 d5 24 0a 3f ff de 82 be bf a2 11 3f 87 19 14 be
       0.5396245 -0.25560758 0.56888956 -0.14462863
000380 bd ab 84 3d 1b 93 9b bd 20 16 9d bd 3c 42 3b 3e
       0.06478069 -0.075964175 -0.07670236 0.18286985
000390 37 8d 04 3f b5 31 0b 3e 30 1f e3 be fd 9e 6e 3f
       0.51777977 0.1359318 -0.44359732 0.93211347
0003a0 7d 25 7e be 11 87 44 bf 45 56 11 bf 0a 26 80 be
       -0.24818988 -0.76768595 -0.5677226 -0.25029022
0003b0 84 59 2c bf 8f 14 65 be 17 a3 b2 3e 82 db 02 bf
       -0.6732409 -0.22371124 0.34890053 -0.5111619
0003c0 17 db 45 3f b6 42 24 bd 46 a3 0a 3f ec ea 33 3f
       0.7728743 -0.040102683 0.54155385 0.7028034
0003d0 52 2d 37 3f a9 61 3b 3f aa 78 d1 3e 36 61 ca 3e
       0.7155353 0.7319589 0.40912372 0.3952729
0003e0 14 bf 29 be ad 6f 14 bf 92 f1 13 3e 7a 48 02 bf
       -0.16576797 -0.57982904 0.1444762 -0.5089184
0003f0 d0 3e 95 3d a5 da 75 3f f4 33 41 be a7 81 10 bf
       0.07287371 0.9603675 -0.18867475 -0.56447834

linear2.bias f4 [10]
000000 9b ef 70 be 56 c6 49 3e 79 7d 69 be 2d d4 05 be
       -0.23528902 0.19704565 -0.2280177 -0.1306922
000010 1a 42 9d 3d 1b 3b bc 3e 79 0d 5c be 8f 85 fb 3c
       0.076786235 0.36763844 -0.21489514 0.030703334
000020 7a 65 19 be 23 5f 13 3c
       -0.14980116 0.00899485
